params/b1.npy (npy, 4080 bytes, 1 tensors)

array f8 [500]
0	0x3f7092cade810304	0.004046242196694253
1	0xbfae8ce81b1a6dec	-0.059668782528401326
2	0xbf72f3aff81d3259	-0.004626929645223565
3	0x3fa1ac0f5b5fc054	0.03451583853154774
4	0xbf9ea04e70ffe92f	-0.02990839543051854
5	0xbfb6d47adf7fcc58	-0.08917968708537793
6	0xbfa3d62567db8b02	-0.03874318020623059
7	0xbf967019c74c12f9	-0.02191200522340162
8	0xbf815a471fc29b50	-0.00847297254251847
9	0x3f84182bf7ce6483	0.009811728954263415
10	0xbfb2f6ad29dce91c	-0.07407648345989454
11	0x3fb265057c94ff5e	0.07185396472504865
12	0xbfa4cc8eb3857c3f	-0.04062314931319876
13	0x3fb861d171fd2a2e	0.0952425864499353
14	0xbf81991580212a10	-0.008592765782073492
15	0x3fa58a8dcfea66bd	0.04207270777733416
16	0x3fb500bdb13bfdf6	0.08204255654344891
17	0x3f94e3c9b4e8fc29	0.02040019194305046
18	0xbfa0b53a025f48d6	-0.03263264922101576
19	0x3fa699b64ec28903	0.04414148055481528
20	0x3f64a20bb7240786	0.002518675691249808
21	0x3fa5407f585c35f5	0.04150770143142416
22	0xbf8342a3d523b7ce	-0.009404449407579476
23	0xbf71503ba6782d71	-0.0042269067848893374
24	0x3fb75eb21d1659e2	0.0912886925710619
25	0x3f9a41e2a90ebc09	0.02564195782514037
26	0x3fb2ccf4c951d566	0.07343988337546178
27	0xbfb71a08086ba22e	-0.09024095731332046
28	0x3f97f452c0dc67ab	0.023392956754015575
29	0xbfb52daf2c4cb365	-0.08272833663495545
30	0xbf519dc8d4734dad	-0.0010752164105739357
31	0xbf9298fa372df270	-0.018161687486541955
32	0x3fa65f6df2cfc55c	0.04369681920060017
33	0x3faf2333bb1815e1	0.060815445507653505
34	0x3fbec0e33c6986b6	0.12013073182017817
35	0x3f8a21318369c2ba	0.012758623907957446
36	0xbfbd447512a5ac0c	-0.11432582574131817
37	0xbf6482d61d132f5b	-0.0025037938981763825
38	0x3f9c3c695bbeb112	0.027574201798118265
39	0x3fabfd9de1485c69	0.05466931700737449
40	0xbfc09a46bee08093	-0.12970814056553034
41	0xbfb934602d535b66	-0.09845543963034017
42	0x3fbe7a5864b96881	0.11905434092605739
43	0xbfb96bb25d1da5c6	-0.09929957173667167
44	0xbfa4af1520d1cebe	-0.040398273712438634
45	0x3f8cecf56e9ad5cc	0.014123837888614064
46	0x3fbe0df708718a48	0.11740058857098135
47	0xbfa6797aad24a0f7	-0.04389556277812006
48	0x3fab97ae160d9285	0.053891601745623276
49	0x3fae75da26e48770	0.05949289059414198
50	0xbf8ec5fec2ef2811	-0.015026083301467737
51	0x3f974ee4e826c618	0.02276189486446442
52	0x3f9f66978c4a51b7	0.030664794862404778
53	0xbfba5563ca335d72	-0.1028654450086515
54	0x3f9a25f8143c2cec	0.025535465464639737
55	0xbfb2360a8bccac3c	-0.07113710320543104
56	0xbfa2a901193daaaa	-0.03644565041652943
57	0x3fb73240b621b79b	0.09061054655623339
58	0x3fb097b249a016b2	0.06481470391744429
59	0x3fa119a9fd0688a1	0.03339892591181238
60	0xbf88cdb8b0c8fa66	-0.012111132521679124
61	0xbfbb1fc0e0763e7c	-0.10595326881434092
62	0xbfbf85dedd774478	-0.123136452740498
63	0x3fa890f04c4d3f1d	0.04798079425256516
64	0xbfa21118b1d80dff	-0.03528668566653081
65	0xbfb2d8f482183d1d	-0.07362297226085386
66	0x3f9faac7b3bde872	0.030924911828585207
67	0x3fa369616a591ad7	0.03791336463159716
68	0x3fa4e8453afb40a2	0.04083458275783981
69	0x3f9630f53497962e	0.02167113431450767
70	0xbf7b2246a3a9d49d	-0.0066244849536946345
71	0xbf9a798cc7a39230	-0.025854301152224035
72	0x3fb706509f417112	0.08994010818554823
73	0x3f90b0b59a5a6f83	0.01629909281346854
74	0x3f9dca3260385a5b	0.029091632006464568
75	0x3f9e9621a6cc22a5	0.02986958103704986
76	0xbfaca7f17770078c	-0.05596880515078259
77	0xbf9ce52c84d3f24b	-0.02821797905652294
78	0x3fb57c05d9961c93	0.08392368852774927
79	0x3f97241a0e6f43da	0.022598654871959535
80	0x3fa2cf839c643d59	0.036739456978575454
81	0x3f983427b3be48ac	0.023636455865535907
82	0x3f90a67188843d14	0.016259931523618112
83	0xbf9b3fd838fc21ba	-0.02661073539550938
84	0x3f93248803192794	0.01869404333982734
85	0x3f8b6aab7b0e51ab	0.013387050335759229
86	0xbfa846a1bc578ae9	-0.047413877716982196
87	0x3f45402693beafe0	0.0006485164990315227
88	0x3f9327e241712d75	0.018706832165020743
89	0x3fb9ed2c097b6566	0.1012752078198865
90	0xbfb22fbc8015f984	-0.07104089858146351
91	0xbfb54808b75bfdd8	-0.08313040234133184
92	0xbf8a87c539d1b503	-0.012954274012566552
93	0x3fac714c65b02696	0.055551898396584296
94	0xbfa9c4dd9a6466a3	-0.0503300906149893
95	0x3fae41faa6a90d34	0.05909713062694735
96	0x3f82ee5eab8802b3	0.009243716821403103
97	0x3f752d76e7f4fb44	0.005170311428911504
98	0xbfb0b28480786a6c	-0.06522396217807519
99	0x3f77d58f5a0c074c	0.005818901031263323
100	0xbf9861be838d7fd3	-0.023810364512769255
101	0xbfa38def318d9ab7	-0.038192248152701884
102	0x3f5ae6b7545ed818	0.0016419210746625498
103	0x3fa39592c27c57f8	0.03825052856534222
104	0xbf898e921bd1f2fd	-0.012478963350298406
105	0x3fb30930b9fcde92	0.07435898342816419
106	0x3f8eb686ef95450d	0.014996580301757345
107	0x3f8d607442cbc412	0.014344127930117554
108	0xbf95f7fb077d722a	-0.021453783352045765
109	0x3fc6522c26b3de64	0.17438270463729844
110	0xbfb8bbfba9a8ac45	-0.09661839382231203
111	0xbf9067ff3b43adfa	-0.01602171706410436
112	0x3faa5cb7fcde6a86	0.051488637559676184
113	0xbfa3bf8458b93d10	-0.038570533590808975
114	0xbfb0155dcd080c4c	-0.0628260255398782
115	0xbfb521ce9aee26ed	-0.08254710466840338
116	0xbfaf7a0cd5fe5b7d	-0.061478043672813044
117	0xbfb091d842739d3d	-0.06472541448930698
118	0xbfabdbde1819ffd3	-0.05441183132370466
119	0x3fa528c10332cfef	0.04132655300182352
120	0xbf9e460aa2c52899	-0.02956406229467543
121	0xbf7b3e687576f784	-0.006651313822144792
122	0xbfa4282e6000003e	-0.03936905786395116
123	0x3fad077b3dff817c	0.05669770366489765
124	0x3f90e62a44596eb6	0.016503010198319422
125	0xbf988871d5bd5a5d	-0.023957995100625563
126	0xbf52c1b7457d16fa	-0.0011448182830959262
127	0x3fbf47ed930c6d43	0.122191284561656
128	0xbfa9e55886db3f1d	-0.050577894651381274
129	0x3fa2c2f445927d8f	0.036643632404998454
130	0x3f9ed55e4e7b0465	0.030110810794898763
131	0xbfacf8f9ceea7ecb	-0.05658703471021694
132	0xbfa793d92a2db9d4	-0.046049868010289124
133	0x3fa486589965fa7d	0.040087479329476296
134	0x3f93d0d84a994a0e	0.019351367524288725
135	0x3fa2697f1a40522b	0.035961124376772645
136	0xbf940b78bf81efd8	-0.0195750109564726
137	0xbf9cbff9d4fb9161	-0.02807607996409567
138	0x3f99f207848f6da8	0.025337331262432677
139	0x3fa07dfc6579de8e	0.03221119631501522
140	0x3fa0fee3645046fc	0.03319464301615757
141	0xbf88775135c572ed	-0.011946329549283397
142	0xbfa6c711f721e3a6	-0.04448753492119488
143	0x3f9bb05d826f6d11	0.027039967619072295
144	0x3fbeb0638904241c	0.11987897963639721
145	0xbf935edf57d168a7	-0.018916597113595526
146	0x3fa090b207da3c1d	0.03235393854003397
147	0x3faf3571de47094d	0.06095462644909109
148	0xbf919a761d1604f0	-0.017190785908955897
149	0xbfb1c8ea107be6ee	-0.06947195913735602
150	0xbfba6b79cbce49bf	-0.10320245004394389
151	0x3fc10d718ae4ff3b	0.133222763843145
152	0xbfa27cc8c8350655	-0.03610827869352976
153	0x3facbfca363b27a8	0.05615074073791898
154	0x3f7010890177c1e3	0.003922019175192723
155	0xbfa756f42e635a91	-0.04558528009663577
156	0xbf95e4fe3a598fc4	-0.021381351767914017
157	0x3fae98bb47aa03af	0.05975899934583794
158	0xbf19dde56918c8e2	-9.867394171506367e-05
159	0x3f61983a752c8908	0.00214778344651834
160	0x3fbef8a464d77075	0.12098147832824842
161	0x3fa037a50539fdfe	0.03167453469086111
162	0x3f8f63a8f6c5f2e4	0.015326805144235185
163	0xbfad79ed267464a1	-0.05757084936539881
164	0xbf8509819eeedb2b	-0.010272038138152325
165	0xbfa3135787f54fac	-0.03725694212576455
166	0xbfb076cb28f69112	-0.06431264638974124
167	0x3fbdbf65f8dd0766	0.11620175672308405
168	0x3fa823c353d8b37b	0.04714785002247531
169	0xbf920ffd53d1abbf	-0.017639120331675914
170	0x3fa3670dcae0e5dd	0.037895613685076525
171	0x3fa7748aad2edda7	0.04581101764727729
172	0xbf6a02772c4941d7	-0.0031750037763133942
173	0x3f7ca7e63a8ccd13	0.0069960587796231875
174	0xbfa800bc5cf500cf	-0.04688061365823303
175	0xbfaf53e29514d54f	-0.06118686742631018
176	0xbf8eec024751f9f4	-0.015098588754196542
177	0x3fa375a5ef665a03	0.03800695941315626
178	0x3fa822fb9b2e9274	0.047141897862535226
179	0x3fc0e0da94417052	0.131861994162025
180	0xbfb06b34b1609fb6	-0.06413583117011865
181	0xbfa2588b9cc45e88	-0.0358317974916505
182	0x3f91f09479014445	0.01751930225902167
183	0x3fb4fd94e0a7477d	0.08199434742644303
184	0x3f97ed607b9d5bd1	0.023366458458749243
185	0x3f8057e92c7fed32	0.007980176611445875
186	0x3f539654a9fe5108	0.0011955096051439757
187	0x3f834c3acadbc717	0.009422740283727955
188	0x3f8a63933f3880e6	0.01288523708996121
189	0x3fa4c36e5c7b3f31	0.04055352095531218
190	0xbf7fb4144486c00d	-0.007740096254948992
191	0x3fc06ea7e28ed92c	0.1283769470443955
192	0x3f95c04e980afcdf	0.02124140551563591
193	0xbfa859876a7b06ef	-0.04755805182277394
194	0x3fa370515421bd94	0.03796629096984386
195	0x3f9ce7039d5fc209	0.028224998932218557
196	0xbf910981cf5308c7	-0.01663782909305025
197	0xbf8c8e5f50192760	-0.013943428642182176
198	0x3fb3c4c2a04fbf27	0.0772210732827686
199	0xbfa92f1bf7118e3a	-0.04918753996824106
200	0x3fb88e9db6fef842	0.09592614858317552
201	0xbfa1c085dda95198	-0.03467195826366093
202	0xbfbbb400ca54dc11	-0.1082153791402194
203	0x3f9e422fb79d02f1	0.029549356061809588
204	0xbf8602e57d7521d0	-0.010747712031517503
205	0x3fa6a94c02c40127	0.044260382974245886
206	0x3fa225cf65bd08eb	0.0354447185223011
207	0xbf839cdf17480e43	-0.00957655229377175
208	0x3fb0d59b599952c1	0.06575938165162666
209	0x3fa06c5437545643	0.032076484445650276
210	0x3fb0bd405f7d00a3	0.06538774806267837
211	0x3fa4616924f417bc	0.03980568481533406
212	0x3fbcb9c44d600dd8	0.11220957650225871
213	0xbfb1184ab8bac26e	-0.06677691469190858
214	0xbfb57725026028bc	-0.08384925182341169
215	0xbf9bb6108d01d0d4	-0.02706170902861589
216	0x3f9bb366ae3de92e	0.027051548371198546
217	0xbf960edc144e6f37	-0.02154106019916854
218	0xbf6182a8d14ac31a	-0.0021374985902514855
219	0xbfb08f9d36ab1969	-0.06469137749363586
220	0xbf1c1de070a60a4c	-0.00010725672124149119
221	0xbf8e4d96431400d2	-0.014796422884046843
222	0x3f99c67d47bd69d1	0.025171239379554514
223	0x3f977997b8b7b652	0.02292477669646182
224	0x3f67e74cde9fa2fd	0.002917909751876001
225	0xbfb10f5da480f3b0	-0.06664071336940824
226	0x3fb093d0d51c20f9	0.06475548937681087
227	0x3f8001ed50ef0c88	0.00781617549171744
228	0xbf9a847520a62cb9	-0.02589591037535108
229	0xbfa1d314c0aa0e31	-0.03481354572161555
230	0xbfbb5cc84418ae09	-0.10688449537763502
231	0xbfb228a186e9102b	-0.0709324793215848
232	0xbfa5b1d2603e2320	-0.04237229752386029
233	0x3fa66189f5f544e7	0.04371291282098771
234	0x3fa5af9f4764ead3	0.04235551592360811
235	0xbf96d2eea3b85a9c	-0.022289017431911348
236	0x3fc17cdcc0761777	0.1366229953529758
237	0xbfb3328e848175d4	-0.0749901841640715
238	0xbf5ccfab4ce57343	-0.001758496556781356
239	0x3fbb38366cb144d3	0.10632648614525246
240	0x3fab301ee96aaba5	0.05310150718044974
241	0xbfb25b3f12f2ae7a	-0.07170480930897752
242	0xbf71cfd64b855448	-0.004348599519592496
243	0x3f602bfa0fa4115b	0.0019740947728924935
244	0x3fa83d3589362be3	0.047341988563026204
245	0xbfa35d85855853e2	-0.03782288792368839
246	0xbfbade0c41072037	-0.10495068156808506
247	0xbf966b06f8525119	-0.021892651468605615
248	0x3fb03f32266cbdd2	0.06346429288964053
249	0x3fb1ca75b128e689	0.06949554038228646
250	0xbfa3aa9ca4e4c4b5	-0.03841104042874958
251	0xbf9d7854f2eca166	-0.028779342009472762
252	0xbf83abfa3dbabbba	-0.009605364807922945
253	0x3f996fa8a3e20d83	0.024840006830812122
254	0xbf9a247d4fd53760	-0.02552982139359672
255	0xbf864b272500797f	-0.0108855302969999
