params/w2.npy (npy, 40080 bytes, 1 tensors)

array f8 [500, 10]
000000 fa 6e b9 df 5e 69 8f 3f ca e7 00 75 d1 80 c3 3f
       0.015337697222256964 0.1523687192255337
000010 40 eb 6f 99 ec 0e a6 bf 98 b5 69 5d 29 26 ab bf
       -0.04308261273396008 -0.05302552476210137
000020 72 67 b4 91 cc 42 a2 bf d0 2d ae a6 68 97 a2 bf
       -0.035665886675089534 -0.03631140741989791
000030 23 cf 15 de 67 e8 c1 3f ce 81 d7 cf d3 ab b8 bf
       0.13990496009830009 -0.09637187790168086
000040 23 62 7f cc 7a f5 b8 3f d2 de d2 00 8b e2 b8 3f
       0.09749572270028088 0.09720677156553428
000050 1f 6d 90 9b c7 a1 a2 bf 03 cf e9 03 01 f2 b1 bf
       -0.03639053129173874 -0.07009893746890943
000060 29 b0 be d8 5d 86 a3 3f 2a ed b8 3b b1 7b a3 bf
       0.03813451071559399 -0.03805307249100516
000070 0d c1 c9 69 de 38 83 bf 15 b5 bb 3f 15 02 c3 bf
       -0.009385812381169001 -0.14850106822942935
000080 e4 d2 36 15 67 d8 c2 3f 0b c0 34 5d 86 10 a2 3f
       0.14722908531043466 0.03528232467431288
000090 90 45 08 6b 33 97 86 3f 54 eb e2 0b ea a9 9b bf
       0.011030580238215376 -0.02701535890148972
0000a0 93 7a 64 c1 e2 ce c9 3f c8 a2 5d 52 7f 60 b2 bf
       0.2016261524485868 -0.07178493271716058
0000b0 8c 95 80 48 11 2d c3 bf db a4 5c 70 f1 c4 d0 bf
       -0.1498128513350533 -0.2620204541477286
0000c0 9a 9c d5 21 de ba b9 3f 1b ed 6a 69 a2 87 aa bf
       0.10050762487445511 -0.05181605851017875
0000d0 02 2b db 66 04 60 d0 3f 11 29 9a 48 c3 27 c1 bf
       0.25586042446654755 -0.13402596516636625
0000e0 e6 53 28 29 3a df b2 bf 61 5e 60 7f 06 6a 85 bf
       -0.07371867661306872 -0.010456133615704024
0000f0 6f 53 2a 94 c5 e2 a3 bf 70 6c 35 1b 64 04 b4 bf
       -0.0388395064702881 -0.07819200195574338
000100 4f 31 ac e5 09 49 9b 3f c2 19 76 e9 5e 01 b5 bf
       0.026645807879547786 -0.08205216598262324
000110 1c dc d9 5b f7 d7 bd 3f 7d d7 ed 70 84 58 4b bf
       0.11657663338142793 -0.0008345266995621739
000120 8c 9b 68 c0 71 00 8b bf e5 96 86 df 86 d9 87 3f
       -0.013184441265435408 0.011645368286575539
000130 23 24 0c 35 e0 c1 b8 bf 80 5c 7d 84 48 a6 b1 3f
       -0.09670831008055862 0.06894353136645925
000140 9c 01 3b 9e 3b 12 c0 bf b2 9f 18 9f d4 fa b5 bf
       -0.1255564234361487 -0.08585862049278495
000150 6e ab db d2 d1 88 c6 bf 0a 27 8f 9b b0 62 c3 3f
       -0.1760504035549632 0.15144927592910334
000160 27 df 47 77 d0 52 c0 3f 47 85 c4 9b a9 4f 79 bf
       0.1275272924829036 -0.006179487736774298
000170 9a 6b 58 ee 1e 36 b1 bf 20 65 67 e3 77 69 77 3f
       -0.06723206824282926 0.0057158167969302565
000180 88 e8 ad 01 d2 22 cd 3f f8 29 fa e3 25 4f ad bf
       0.22762513238905435 -0.05724447639393654
000190 a1 65 5c a5 1e 4b 94 3f c1 d0 d3 f1 97 0c a7 bf
       0.019817808955030384 -0.045017956037470615
0001a0 6e 88 ed 26 40 5e be 3f 91 c2 63 03 e9 fa 94 bf
       0.11862564993274002 -0.020488396484270203
0001b0 35 8c 5f cd 2f f3 90 3f e9 d2 e2 7b 5f 71 61 bf
       0.0165526837444185 -0.0021292557640556387
0001c0 b4 12 30 29 18 fe c3 3f ea 1d c9 48 f6 d7 8f bf
       0.15619184504625638 -0.015548633667221663
0001d0 73 bc 77 5d 1a 58 ad 3f 26 da db ae 7f 18 b5 bf
       0.0573127974602067 -0.08240507143987283
0001e0 2b 72 0b 65 da 7e a8 3f bf 64 03 12 e8 37 c9 3f
       0.047842812380370546 0.19701863174012677
0001f0 ab b2 af d1 b9 6b ce 3f 05 a3 b6 f8 87 7a 81 bf
       0.2376625322207436 -0.008534490850097063
000200 1f d5 b0 41 43 2e b0 3f 0a 0a 44 94 52 71 b1 bf
       0.06320591310289501 -0.06813541526575065
000210 fe cc 54 d5 35 fe b0 bf a1 8f 52 d3 92 c6 b9 bf
       -0.06637894113810103 -0.10068624171486686
000220 1a af e7 f9 36 3a bb bf 79 9c 86 ef b6 e6 a1 bf
       -0.1063570366019885 -0.034963337649338073
000230 11 79 61 9d f8 61 c5 3f 90 38 0a d9 41 96 ca bf
       0.1670523422680579 -0.20771048638966194
000240 89 de 0b 08 e7 5b a2 bf 44 47 5d f1 1d 23 cd 3f
       -0.035857410175535405 0.2276341846978146
000250 78 6c 8a ab 2e 8f c7 bf 37 e9 86 ab df 21 c5 3f
       -0.18405707717906572 0.16509624362317663
000260 3a 4c 82 d7 52 cd b5 bf 29 70 18 d7 58 b9 c0 3f
       -0.08516423951577759 0.13065634253223493
000270 98 fa 92 c8 f1 21 c2 3f f9 7b 71 b9 0a 3a 73 bf
       0.14166090291651723 -0.004694024936809698
000280 23 5a d4 01 b3 1f 8b 3f 05 5f 2b 8d 83 49 cd 3f
       0.013244055264789506 0.22880596535718936
000290 43 62 5b 63 ac c3 b3 3f 67 05 3e 53 be 48 bc bf
       0.0772044889994357 -0.11048497707635861
0002a0 9b d4 8c 41 e1 f7 b0 bf 66 1e c4 56 bd 4f ce 3f
       -0.06628234720558838 0.23680845963120872
0002b0 ff 6e 04 ba 52 7d b5 bf c2 e8 7e 8e a7 32 b2 bf
       -0.08394352952421612 -0.07108542660617714
0002c0 b7 e6 69 ac bf 94 bb bf e1 1f c2 62 03 cc c2 bf
       -0.10773847541158942 -0.14685098955328527
0002d0 2a d9 64 5a 24 dc 60 bf 34 2d c8 83 f7 fb c5 3f
       -0.002058096887732526 0.17175191816964175
0002e0 38 ef 4a 3f 8c 58 cd 3f 1d f2 8f 88 f4 f1 bc bf
       0.22926476564850318 -0.11306694349327313
0002f0 f7 3a 38 c7 5d e8 8f bf 04 bd f4 88 6c 9a be 3f
       -0.015579922334862923 0.1195438227048165
000300 21 b3 46 08 f1 40 ad 3f 80 d1 13 2c 47 3c bb bf
       0.05713608957316852 -0.10638851953610207
000310 1e 25 09 f2 95 5c c2 bf b8 7c ed 3e 11 bb c4 bf
       -0.14345049207830923 -0.16195884297028385
000320 6d ea 42 9a 40 86 d4 3f 37 13 34 76 a7 3c b2 bf
       0.320694113393677 -0.07123800884080543
000330 90 53 5c 56 21 b7 ba 3f 32 9a b3 d5 c5 cc c1 3f
       0.10435684545912083 0.13906166968009043
000340 5d a9 0a 78 f7 64 bd 3f 41 38 1c 8e c8 29 d6 bf
       0.1148218792028834 -0.34630025747253873
000350 10 9e 8a 43 d0 e5 c5 3f 34 a0 cd f5 3c cc a7 bf
       0.17107585237430145 -0.046480088238979894
000360 88 fa 2a dd 39 ab c5 bf 80 9f 15 08 f6 58 b6 bf
       -0.16928790377820158 -0.08729493806242594
000370 4c b8 15 b7 1e 7d a7 bf 2f f1 47 36 1a 05 d6 3f
       -0.04587646469995885 0.3440614252174496
000380 e6 0e cc 75 e8 ad b2 bf 77 2c c7 88 31 b3 c9 3f
       -0.07296612621217555 0.2007810514317929
000390 d0 54 b3 da a6 81 77 3f 54 8a 54 39 bc 2c a8 3f
       0.005738879942517275 0.04721630287010173
0003a0 db c0 8d 5a b4 40 86 bf 6e 60 d1 aa 2e 0c a9 bf
       -0.010865601552467677 -0.048921068527023034
0003b0 12 bf 5b 9f a6 5a c4 bf 5d a1 54 51 a6 f7 74 3f
       -0.15901644498034578 0.005118989637857699
0003c0 a5 c4 27 21 41 9b b1 bf bf c0 5c 8d f7 ed c8 3f
       -0.06877524432617806 0.19476217653710212
0003d0 56 7a 74 94 c1 9c 9b 3f 31 85 3d d6 d3 75 b8 3f
       0.02696516483876573 0.09554790478207022
0003e0 8d 52 30 99 12 e3 c5 bf 2f da 5b ed 77 b5 bd bf
       -0.17099220733566192 -0.11605023903744248
0003f0 96 2d 47 00 fd ad c5 bf b9 27 31 77 d5 a0 c3 bf
       -0.1693722010953535 -0.15334575958178023
000400 6f 4a 8a 3e 61 4e cd 3f 69 e2 33 53 c4 2f a8 bf
       0.22895446351738566 -0.04723943248422275
000410 64 31 44 ac 7e bd c4 bf 8f 6e bf b4 22 49 8d bf
       -0.16203292285389204 -0.014299651280388374
000420 62 c2 f5 7a 5a 4d d2 3f 2e 14 71 a9 95 d9 c1 bf
       0.2859712792187904 -0.1394526555397148
000430 60 60 77 81 ee 86 af bf 8e 14 d3 88 5f 58 d6 3f
       -0.06157632189177842 0.3491438709427904
000440 11 2e 0a c2 6d 69 bc 3f 39 61 01 42 b3 02 c6 bf
       0.1109837149362465 -0.17195740435523435
000450 4f f0 df c1 e9 12 c2 bf 15 8c 30 04 5b 0d ae 3f
       -0.14120218245068591 0.058695644627981526
000460 e7 55 5b ba 08 27 c1 bf 25 9a 44 21 cf 47 6f 3f
       -0.13400372600032925 0.0038184209353347037
000470 49 0f 74 e4 4c 8f bd 3f 2f b1 40 12 8a e0 b7 bf
       0.11546783997988287 -0.09326994844076773
000480 28 53 86 f9 f0 b1 a5 bf 04 fb 04 65 d7 85 9a bf
       -0.04237320943790329 -0.025901189366090996
000490 e2 a1 c2 6e 76 b2 b2 bf f7 51 6c 03 a7 f3 be 3f
       -0.0730356235895964 0.12090534051487355
0004a0 cc cf 00 d3 af ee c6 3f 92 61 56 91 ef ff cb bf
       0.1791591434754295 -0.21874804112009066
0004b0 99 e2 63 cc 56 b2 cb 3f 79 ba 12 6b 26 5c 9c 3f
       0.216379976081744 0.02769527462504093
0004c0 6a 7d 17 62 fc aa c3 bf 17 69 74 62 2e 63 c7 3f
       -0.15365557469975083 0.18271426970824997
0004d0 6c 41 ca 51 d0 d0 c9 bf 5a c7 22 83 b5 c9 bd 3f
       -0.20168498986869154 0.11635908557471222
0004e0 85 e3 91 97 6f 00 c3 bf e0 21 3c 0d c2 a7 c6 3f
       -0.1484508028113646 0.17699456831202465
0004f0 76 a6 80 93 ba 87 d8 bf 11 e2 7c 7b b6 71 ca 3f
       -0.3832842293219082 0.20659523992232257
000500 33 4e fe 49 90 d1 c6 bf fd 1d bd cc e1 b1 b7 3f
       -0.17827037442167323 0.0925580143785893
000510 4b 85 45 4f 60 1f b6 3f e7 b0 25 83 b3 33 a6 3f
       0.08641626296368547 0.0433631990043482
000520 32 48 6e d1 b8 5a bc bf 22 73 8e 51 1b 94 b5 3f
       -0.1107593070321691 0.08429117909549835
000530 20 25 8e ee 0d cb b5 3f 38 e1 a7 61 74 52 9e 3f
       0.08512961458304291 0.029611414394794283
000540 57 df d1 69 16 69 c2 bf ca be 4c 43 d7 03 c7 bf
       -0.143832017583686 -0.1798047140705335
000550 df cf 47 23 55 bb 85 bf 32 43 ef d4 8f de c4 3f
       -0.01061121477048482 0.1630420484275646
000560 19 97 f1 4a 3b ee 77 3f bf 83 ca fb a9 49 80 3f
       0.005842429745006838 0.007953002926400886
000570 63 b0 b3 9a c9 b1 9d 3f 20 35 61 47 92 9f af bf
       0.02899851805425192 -0.061764308179230065
000580 2a 9c 94 5c 8e 1e b4 bf eb dd 41 61 06 d7 be 3f
       -0.07859124908701234 0.12046851992078415
000590 84 f8 69 f2 9f 38 bc bf be 17 84 20 b8 f7 a3 bf
       -0.1102390257674149 -0.03899932286189721
0005a0 b2 65 7c 1b df d8 b4 3f 27 ea ea 3e 99 03 b0 3f
       0.08143419667285093 0.06255491052699168
0005b0 16 af a3 63 46 4a b0 3f 67 2e 7c 08 e6 35 65 3f
       0.06363334591486267 0.0025891774020061933
0005c0 f4 1b 79 c5 8a 63 99 3f 1f 53 f9 53 03 32 a9 bf
       0.024793785383987868 -0.04920969390938112
0005d0 8a c6 7d 55 06 56 80 bf f6 c0 b2 12 c0 93 b3 bf
       -0.00797657917403007 -0.07647324043751155
0005e0 7c c4 7e c4 72 28 bb bf 31 5f 36 03 46 26 b0 bf
       -0.10608594224210494 -0.06308400705745211
0005f0 0f ab 82 12 e8 f2 c2 3f ab 55 05 ff 79 00 c3 3f
       0.14803791908101302 0.14845204307736756
000600 c8 ee 10 79 79 07 d6 3f c7 b7 21 9d 32 0d 9e 3f
       0.34420620749345376 0.02934722026878214
000610 ce 0b 34 83 ac b4 c4 bf 98 ff 52 32 16 63 ca 3f
       -0.1617637291566027 0.20614888627278272
000620 32 5f 89 c5 83 da a1 bf 07 91 e9 f9 1a 0a 81 bf
       -0.034870260108333176 -0.008320055724830867
000630 f0 41 53 a5 8e 56 d1 bf 48 6f 3d 6c 73 0b a4 bf
       -0.2709080328468465 -0.039149863207710356
000640 d8 28 97 9c 29 1b c2 bf 59 a6 01 a2 19 6a 90 3f
       -0.14145393510836501 0.016029739869202284
000650 8e ea b0 e3 dd d9 d1 3f dc 2c 23 44 ee 4b 94 3f
       0.2789225314660734 0.019820902737404875
000660 df c2 5a c4 44 38 a3 bf 43 4b 6e c5 58 f9 b7 bf
       -0.037538670510348864 -0.09364847965325133
000670 b5 64 5f fe bc 2d be bf bc 8c fa df b8 eb ca 3f
       -0.11788541040677354 0.21031866966686674
000680 34 7c 67 87 f0 88 c3 bf 8a ac 6e 93 b1 0c 81 bf
       -0.1526165639070044 -0.008324992477204658
000690 75 fa 11 e3 ba 96 98 bf aa c4 ae 28 65 48 c4 3f
       -0.024012489423052636 0.15845932470759766
0006a0 c1 d7 9a ae 1a 25 b3 bf 1c 2e a6 00 97 ce a7 3f
       -0.07478491556943735 0.04649803049968801
0006b0 1c 90 16 99 45 39 9a bf a5 bf de 65 88 5f c2 3f
       -0.025609099835165336 0.1435404298222213
0006c0 8e 1c da b9 e2 18 ba 3f ad 9d f4 08 4f 9e 93 3f
       0.1019422248592596 0.019158587380983572
0006d0 05 9b f8 b0 d1 10 bd bf b6 aa 7a 4c e6 dc a4 3f
       -0.11353788920005677 0.04074783023437105
0006e0 62 dc 96 1e 4e 24 bf 3f b9 e1 9d 6f 0b db 91 3f
       0.12164772269066895 0.017437151610893518
0006f0 c3 00 6b 0b ce f9 a2 3f 32 64 44 01 0a ab c3 bf
       0.037062109845920975 -0.153657198542335
000700 d1 d3 8a fc 30 dd b6 3f 61 3b 06 a3 65 01 be bf
       0.08931261220534671 -0.11720881681524765
000710 ea 7a c3 81 87 7a 78 3f 07 02 3d 5e cf f1 ba 3f
       0.005976228069100678 0.10525222826709789
000720 6d 02 0e e5 3f 31 c8 bf 17 62 11 d9 26 d9 af 3f
       -0.18900297817528458 0.062203611371561766
000730 f4 13 97 a9 54 78 b1 3f 17 7e fb 30 fe 0d 9f 3f
       0.0682423509634445 0.03032681631054687
000740 70 e5 06 6f 7a b7 8a 3f 8e ca d2 26 2c e7 69 3f
       0.013045269501946705 0.0031619894349089244
000750 83 41 51 79 8f 0e 8a bf 84 40 28 1e 68 88 a5 3f
       -0.012723084344685947 0.04205632560854247
000760 c8 49 ae 65 be ee 98 3f f3 86 1d 47 73 8c 60 bf
       0.024348235088447884 -0.0020200969237728016
000770 93 33 05 ca 3b fe a9 bf a9 d1 5e f4 e9 d3 a9 bf
       -0.050767773066218734 -0.05044489963566729
000780 c6 f6 a0 90 0c 46 c9 bf 7e 65 bb e4 38 03 c9 3f
       -0.19745022832824172 0.1954108349662355
000790 5b 7a 5b 35 06 f6 d3 bf f6 71 f8 92 df 93 94 bf
       -0.3118911286418659 -0.020095342011801486
0007a0 cb 08 fa c7 8b b6 86 3f 34 54 00 83 31 0b cc 3f
       0.011090366401962723 0.21909159561678992
0007b0 fe 25 e8 33 1a 83 b2 bf 3e 6b f1 46 09 d8 bd bf
       -0.07231296317345223 -0.11657770139701726
0007c0 a5 8f 6c 56 fe d7 95 3f 7c 54 d2 6d a3 1e a6 3f
       0.02133176233759539 0.04320250239940379
0007d0 67 d4 26 5f a2 dc 6b 3f a2 54 a9 e8 49 6d c6 3f
       0.0034011050531384426 0.17521022663519142
0007e0 49 08 41 71 57 ac 73 bf 2e 30 ae e9 6f ff a3 3f
       -0.004803029605740924 0.03905820586723539
0007f0 72 78 c4 8b ee 3c ba bf d8 f4 95 8b c7 81 c7 3f
       -0.10249224579135488 0.18364805522643368
